…
Loading checkpoint shards:   0%|          | 0/7 [00:00<?, ?it/s]Loading checkpoint shards:  14%|█▍        | 1/7 [00:01<00:06,  1.09s/it]Loading checkpoint shards:  29%|██▊       | 2/7 [00:02<00:07,  1.41s/it]Loading checkpoint shards:  43%|████▎     | 3/7 [00:11<00:18,  4.73s/it]Loading checkpoint shards:  57%|█████▋    | 4/7 [00:12<00:10,  3.42s/it]Loading checkpoint shards:  71%|███████▏  | 5/7 [00:14<00:05,  2.76s/it]Loading checkpoint shards:  86%|████████▌ | 6/7 [00:16<00:02,  2.37s/it]Loading checkpoint shards: 100%|██████████| 7/7 [00:16<00:00,  1.91s/it]Loading checkpoint shards: 100%|██████████| 7/7 [00:16<00:00,  2.42s/it]
2024-12-20:22:45:10,471 INFO     [huggingface.py:767] self._model: DeepseekForCausalLM(
  (model): DeepseekModel(
    (embed_tokens): Embedding(102400, 2048)
    (layers): ModuleList(
      (0): DeepseekDecoderLayer(
        (self_attn): DeepseekSdpaAttention(
          (q_proj): Linear(in_features=2048, out_features=2048, bias=False)
          (k_proj): Linear(in_features=2048, out_features=2048, bias=False)
          (v_proj): Linear(in_features=2048, out_features=2048, bias=False)
          (o_proj): Linear(in_features=2048, out_features=2048, bias=False)
          (rotary_emb): DeepseekRotaryEmbedding()
        )
        (mlp): DeepseekMLP(
          (gate_proj): Linear(in_features=2048, out_features=10944, bias=False)
          (up_proj): Linear(in_features=2048, out_features=10944, bias=False)
          (down_proj): Linear(in_features=10944, out_features=2048, bias=False)
          (act_fn): SiLU()
        )
        (input_layernorm): DeepseekRMSNorm()
        (post_attention_layernorm): DeepseekRMSNorm()
      )
      (1-27): 27 x DeepseekDecoderLayer(
        (self_attn): DeepseekSdpaAttention(
          (q_proj): Linear(in_features=2048, out_features=2048, bias=False)
          (k_proj): Linear(in_features=2048, out_features=2048, bias=False)
          (v_proj): Linear(in_features=2048, out_features=2048, bias=False)
          (o_proj): Linear(in_features=2048, out_features=2048, bias=False)
          (rotary_emb): DeepseekRotaryEmbedding()
        )
        (mlp): DeepseekMoE(
          (experts): ModuleList(
            (0-63): 64 x DeepseekMLP(
              (gate_proj): Linear(in_features=2048, out_features=1408, bias=False)
              (up_proj): Linear(in_features=2048, out_features=1408, bias=False)
              (down_proj): Linear(in_features=1408, out_features=2048, bias=False)
              (act_fn): SiLU()
            )
          )
          (gate): MoEGate()
          (shared_experts): DeepseekMLP(
            (gate_proj): Linear(in_features=2048, out_features=2816, bias=False)
            (up_proj): Linear(in_features=2048, out_features=2816, bias=False)
            (down_proj): Linear(in_features=2816, out_features=2048, bias=False)
            (act_fn): SiLU()
          )
        )
        (input_layernorm): DeepseekRMSNorm()
        (post_attention_layernorm): DeepseekRMSNorm()
      )
    )
    (norm): DeepseekRMSNorm()
  )
  (lm_head): Linear(in_features=2048, out_features=102400, bias=False)
)
2024-12-20:22:45:10,471 INFO     [huggingface.py:774]  ** Max Memory (device: 0): 30.64 GB (64.64%)
2024-12-20:22:45:10,471 INFO     [huggingface.py:776] Memory (VRAM): 30.64 GB (64.64%)
2024-12-20:22:45:10,471 INFO     [huggingface.py:319] router_dir: . 
Special tokens have been added in the vocabulary, make sure the associated word embeddings are fine-tuned or trained.
…
